KWS_favorite.tflite (tflite, 22712 bytes, 2 tensors)

final_fc_weights/read/transpose i1 [5, 4000] scale=0.0004401584 zero_point=0
000000 f9 ef 0a 19 0b 23 fb 0c b3 0f e0 f6 1e fa 06 0b
       -0.0030811087 -0.0074826926 0.0044015837 0.01100396 0.004841742 0.015405543 -0.0022007918 0.0052819005 -0.033892196 0.006602376 -0.014085068 -0.0044015837 0.013204752 -0.0026409503 0.0026409503 0.004841742
000010 97 0e 18 d0 fc 1d 19 fe c0 ef ef 13 0f f4 30 f7
       -0.04621663 0.0061622174 0.010563801 -0.021127602 -0.0017606335 0.012764594 0.01100396 -0.0008803168 -0.028170137 -0.0074826926 -0.0074826926 0.008363009 0.006602376 -0.0052819005 0.021127602 -0.0039614253
000020 b5 22 ee 0b eb f0 40 ed ef 16 d9 00 19 00 4f 0f
       -0.03301188 0.014965385 -0.007922851 0.004841742 -0.009243326 -0.007042534 0.028170137 -0.008363009 -0.0074826926 0.009683484 -0.017166177 0.0 0.01100396 0.0 0.03477251 0.006602376
000030 bd 08 db 0e 0e eb 1c 12 db ec f3 f7 07 e2 44 02
       -0.029490612 0.003521267 -0.01628586 0.0061622174 0.0061622174 -0.009243326 0.012324435 0.007922851 -0.01628586 -0.008803167 -0.005722059 -0.0039614253 0.0030811087 -0.013204752 0.02993077 0.0008803168
000040 c9 17 e1 e3 ff 0c 13 00 d4 04 dc e3 16 03 22 ed
       -0.024208711 0.010123643 -0.01364491 -0.012764594 -0.0004401584 0.0052819005 0.008363009 0.0 -0.019366968 0.0017606335 -0.015845701 -0.012764594 0.009683484 0.0013204751 0.014965385 -0.008363009
000050 c1 18 f0 0c 06 fd 2b f9 cb 08 f5 e7 1d e7 23 0d
       -0.027729979 0.010563801 -0.007042534 0.0052819005 0.0026409503 -0.0013204751 0.01892681 -0.0030811087 -0.023328394 0.003521267 -0.004841742 -0.01100396 0.012764594 -0.01100396 0.015405543 0.005722059
000060 d0 16 fc 07 f8 16 2f 12 c8 f5 e4 14 0e 22 38 12
       -0.021127602 0.009683484 -0.0017606335 0.0030811087 -0.003521267 0.009683484 0.020687444 0.007922851 -0.02464887 -0.004841742 -0.012324435 0.008803167 0.0061622174 0.014965385 0.02464887 0.007922851
000070 ba f0 dd 14 fa 04 3f 13 b5 06 02 f5 e4 f5 44 2b
       -0.030811086 -0.007042534 -0.015405543 0.008803167 -0.0026409503 0.0017606335 0.027729979 0.008363009 -0.03301188 0.0026409503 0.0008803168 -0.004841742 -0.012324435 -0.004841742 0.02993077 0.01892681
000080 c9 f4 22 f0 ff d3 16 0b c6 ee 2b e6 13 01 13 22
       -0.024208711 -0.0052819005 0.014965385 -0.007042534 -0.0004401584 -0.019807128 0.009683484 0.004841742 -0.025529187 -0.007922851 0.01892681 -0.011444118 0.008363009 0.0004401584 0.008363009 0.014965385
000090 d8 ec 12 ed 08 f0 0d 12 dc 01 fb 1d 0a ec f4 e6
       -0.017606335 -0.008803167 0.007922851 -0.008363009 0.003521267 -0.007042534 0.005722059 0.007922851 -0.015845701 0.0004401584 -0.0022007918 0.012764594 0.0044015837 -0.008803167 -0.0052819005 -0.011444118
0000a0 a5 e8 0e 0f f9 01 02 d5 e5 0f df 07 fd 0a f5 06
       -0.040054414 -0.010563801 0.0061622174 0.006602376 -0.0030811087 0.0004401584 0.0008803168 -0.01892681 -0.011884277 0.006602376 -0.014525226 0.0030811087 -0.0013204751 0.0044015837 -0.004841742 0.0026409503
0000b0 db 2a 11 d4 ff 11 0a 0e e4 1a d7 f7 fd 00 06 00
       -0.01628586 0.018486653 0.0074826926 -0.019366968 -0.0004401584 0.0074826926 0.0044015837 0.0061622174 -0.012324435 0.011444118 -0.018046495 -0.0039614253 -0.0013204751 0.0 0.0026409503 0.0
0000c0 f2 fb d8 f9 fb 0e 2e e9 ed fb e6 f3 25 11 0a 0b
       -0.0061622174 -0.0022007918 -0.017606335 -0.0030811087 -0.0022007918 0.0061622174 0.020247286 -0.010123643 -0.008363009 -0.0022007918 -0.011444118 -0.005722059 0.01628586 0.0074826926 0.0044015837 0.004841742
0000d0 f1 19 e2 0b f9 dc fb 0b 0b f6 d7 ee f8 fe 02 1f
       -0.006602376 0.01100396 -0.013204752 0.004841742 -0.0030811087 -0.015845701 -0.0022007918 0.004841742 0.004841742 -0.0044015837 -0.018046495 -0.007922851 -0.003521267 -0.0008803168 0.0008803168 0.01364491
0000e0 f8 11 e4 01 eb f5 f6 15 c6 fa d8 e6 01 21 fd 0d
       -0.003521267 0.0074826926 -0.012324435 0.0004401584 -0.009243326 -0.004841742 -0.0044015837 0.009243326 -0.025529187 -0.0026409503 -0.017606335 -0.011444118 0.0004401584 0.014525226 -0.0013204751 0.005722059
0000f0 e6 f2 ee 11 14 fe 0d e6 fb fe ef ec fc f0 1a 14
       -0.011444118 -0.0061622174 -0.007922851 0.0074826926 0.008803167 -0.0008803168 0.005722059 -0.011444118 -0.0022007918 -0.0008803168 -0.0074826926 -0.008803167 -0.0017606335 -0.007042534 0.011444118 0.008803167

first_weights/read i1 [1, 10, 8, 8]
000000 0f c0 0f a5 c7 93 0d 0d 2d 20 e3 01 d9 1b 22 bc
       15 -64 15 -91 -57 -109 13 13 45 32 -29 1 -39 27 34 -68
000010 44 dc dd e1 f3 f4 29 5c 32 dc db e3 e2 ec ec bc
       68 -36 -35 -31 -13 -12 41 92 50 -36 -37 -29 -30 -20 -20 -68
000020 1a 93 f1 aa da 46 38 6d e1 31 08 bd dc 1d ee a2
       26 -109 -15 -86 -38 70 56 109 -31 49 8 -67 -36 29 -18 -94
000030 d9 5f 2a 8b f9 68 f3 7f 03 7f 18 a8 10 2c ba c9
       -39 95 42 -117 -7 104 -13 127 3 127 24 -88 16 44 -70 -55
000040 01 b1 24 fe d5 89 03 26 1f 0d df 49 c2 e4 15 f5
       1 -79 36 -2 -43 -119 3 38 31 13 -33 73 -62 -28 21 -11
000050 1e e6 e1 11 e7 f0 28 61 22 d4 e1 46 db 05 ee f0
       30 -26 -31 17 -25 -16 40 97 34 -44 -31 70 -37 5 -18 -16
000060 ed a4 0a ff ac 4c 5a 72 d5 1e 26 01 ed 1b e9 c8
       -19 -92 10 -1 -84 76 90 114 -43 30 38 1 -19 27 -23 -56
000070 c7 6a 33 e2 f2 74 08 7f f9 6e 0e da 51 0f af 0d
       -57 106 51 -30 -14 116 8 127 -7 110 14 -38 81 15 -81 13
000080 ec ac 27 fc b9 92 e7 09 35 fc cd 2b d6 e2 06 da
       -20 -84 39 -4 -71 -110 -25 9 53 -4 -51 43 -42 -30 6 -38
000090 f1 e6 e9 37 d4 ba 13 3e 11 d2 d2 36 f3 d1 e3 e9
       -15 -26 -23 55 -44 -70 19 62 17 -46 -46 54 -13 -47 -29 -23
0000a0 d9 a7 24 11 af 6f 70 41 c4 09 24 09 34 15 df d1
       -39 -89 36 17 -81 111 112 65 -60 9 36 9 52 21 -33 -47
0000b0 de 48 38 f1 16 50 24 55 f7 4a ec ef 4e 28 b9 1e
       -34 72 56 -15 22 80 36 85 -9 74 -20 -17 78 40 -71 30
0000c0 e7 bd 21 de c8 8c cb ea 1a 02 be 24 f3 e4 f5 c2
       -25 -67 33 -34 -56 -116 -53 -22 26 2 -66 36 -13 -28 -11 -62
0000d0 e3 ea f9 04 bd a7 0a 22 f9 d7 de 32 ed a7 dc d3
       -29 -22 -7 4 -67 -89 10 34 -7 -41 -34 50 -19 -89 -36 -45
0000e0 ea ac 4a f8 d2 67 7f 1a d4 1c 2f f9 0c 2f e2 ca
       -22 -84 74 -8 -46 103 127 26 -44 28 47 -7 12 47 -30 -54
0000f0 f1 45 2e da ff 5c 43 45 03 60 e1 f2 60 0c cf 16
       -15 69 46 -38 -1 92 67 69 3 96 -31 -14 96 12 -49 22
